…
in: ziffer_raw/7_7_nt6_20210625-172323.jpg  -  out: ziffer_resize/7_7_nt6_20210625-172323.jpg
in: ziffer_raw/NaN_20200911-170139_ROI5.jpg  -  out: ziffer_resize/NaN_20200911-170139_ROI5.jpg
in: ziffer_raw/NaN_digit8_213207.jpg  -  out: ziffer_resize/NaN_digit8_213207.jpg
in: ziffer_raw/NaN_D8_2020-08-23_12-51-27.jpg  -  out: ziffer_resize/NaN_D8_2020-08-23_12-51-27.jpg
dig-s0
a_output_actual/dig-s0
File Exists
Model: "sequential"
_________________________________________________________________
 Layer (type)                Output Shape              Param #   
=================================================================
 batch_normalization (BatchN  (None, 32, 20, 3)        12        
 ormalization)                                                   
                                                                 
 conv2d (Conv2D)             (None, 32, 20, 32)        896       
                                                                 
 max_pooling2d (MaxPooling2D  (None, 16, 10, 32)       0         
 )                                                               
                                                                 
 conv2d_1 (Conv2D)           (None, 16, 10, 64)        18496     
                                                                 
 max_pooling2d_1 (MaxPooling  (None, 8, 5, 64)         0         
 2D)                                                             
                                                                 
 conv2d_2 (Conv2D)           (None, 8, 5, 64)          36928     
                                                                 
 max_pooling2d_2 (MaxPooling  (None, 4, 2, 64)         0         
 2D)                                                             
                                                                 
 flatten (Flatten)           (None, 512)               0         
                                                                 
 dense (Dense)               (None, 512)               262656    
                                                                 
 dense_1 (Dense)             (None, 11)                5643      
                                                                 
=================================================================
Total params: 324,631
Trainable params: 324,625
Non-trainable params: 6
_________________________________________________________________
1156
(1156, 32, 20, 3)
(1156, 11)
(924, 32, 20, 3)
(232, 32, 20, 3)
Epoch 1/100
  1/231 [..............................] -
…
78 - accuracy: 0.9989231/231 [==============================] - 2s 9ms/step - loss: 0.0078 - accuracy: 0.9989 - val_loss: 2.5578e-06 - val_accuracy: 1.0000
dig-s0
File Exists
ziffer_resize/7_10_ht6_20210703-133250.jpg 7 -1
dig-s1
a_output_actual/dig-s1
File Exists
Model: "sequential_1"
_________________________________________________________________
 Layer (type)                Output Shape              Param #   
=================================================================
 batch_normalization_1 (Batc  (None, 32, 20, 3)        12        
 hNormalization)                                                 
                                                                 
 conv2d_3 (Conv2D)           (None, 32, 20, 32)        896       
                                                                 
 max_pooling2d_3 (MaxPooling  (None, 16, 10, 32)       0         
 2D)                                                             
                                                                 
 conv2d_4 (Conv2D)           (None, 16, 10, 64)        18496     
                                                                 
 max_pooling2d_4 (MaxPooling  (None, 8, 5, 64)         0         
 2D)                                                             
                                                                 
 conv2d_5 (Conv2D)           (None, 8, 5, 64)          36928     
                                                                 
 max_pooling2d_5 (MaxPooling  (None, 4, 2, 64)         0         
 2D)                                                             
                                                                 
 flatten_1 (Flatten)         (None, 512)               0         
                                                                 
 dense_2 (Dense)             (None, 256)               131328    
                                                                 
 dense_3 (Dense)             (None, 11)                2827      
                                                                 
=================================================================
Total params: 190,487
Trainable params: 190,481
Non-trainable params: 6
_________________________________________________________________
1156
(1156, 32, 20, 3)
(1156, 11)
(924, 32, 20, 3)
(232, 32, 20, 3)
Epoch 1/100
  1/231 [..............................] -
…
20220221	1156	97	0.00010803337499964982	0.6114012598991394
20220221	1156	98	1.484091262682341e-05	0.6416431069374084
20220221	1156	99	0.008312155492603779	0.18472245335578918
20220221	1156	100	0.017664266750216484	0.3209165334701538
dig-s1
File Exists
ziffer_resize/10_e3_20220218-134443.jpg 1 -1
ziffer_resize/10_e5_20220218-074744.jpg 1 -1
dig-s2
a_output_actual/dig-s2
File Exists
Model: "sequential_2"
_________________________________________________________________
 Layer (type)                Output Shape              Param #   
=================================================================
 batch_normalization_2 (Batc  (None, 32, 20, 3)        12        
 hNormalization)                                                 
                                                                 
 conv2d_6 (Conv2D)           (None, 32, 20, 32)        896       
                                                                 
 max_pooling2d_6 (MaxPooling  (None, 16, 10, 32)       0         
 2D)                                                             
                                                                 
 conv2d_7 (Conv2D)           (None, 16, 10, 32)        9248      
                                                                 
 max_pooling2d_7 (MaxPooling  (None, 8, 5, 32)         0         
 2D)                                                             
                                                                 
 conv2d_8 (Conv2D)           (None, 8, 5, 32)          9248      
                                                                 
 max_pooling2d_8 (MaxPooling  (None, 4, 2, 32)         0         
 2D)                                                             
                                                                 
 flatten_2 (Flatten)         (None, 256)               0         
                                                                 
 dense_4 (Dense)             (None, 256)               65792     
                                                                 
 dense_5 (Dense)             (None, 11)                2827      
                                                                 
=================================================================
Total params: 88,023
Trainable params: 88,017
Non-trainable params: 6
_________________________________________________________________
1156
(1156, 32, 20, 3)
(1156, 11)
(924, 32, 20, 3)
(232, 32, 20, 3)
Epoch 1/100
  1/231 [..............................] - E
…
20220221	1156	100	1.5865026625760947e-06	0.3552864193916321
dig-s2
File Exists
ziffer_resize/10_e2_20220218-132943.jpg 1 -1
ziffer_resize/10_e4_20220217-112645.jpg 1 7
ziffer_resize/10_e5_20220218-074744.jpg 1 -1
ziffer_resize/4_e1_20220217-024746.jpg 4 9
ziffer_resize/NaN_ziffer5_2020-04-16_11-40-06.jpg -1 5
dig-s3
a_output_actual/dig-s3
File Exists
Model: "sequential_3"
_________________________________________________________________
 Layer (type)                Output Shape              Param #   
=================================================================
 batch_normalization_3 (Batc  (None, 32, 20, 3)        12        
 hNormalization)                                                 
                                                                 
 conv2d_9 (Conv2D)           (None, 32, 20, 32)        896       
                                                                 
 max_pooling2d_9 (MaxPooling  (None, 16, 10, 32)       0         
 2D)                                                             
                                                                 
 conv2d_10 (Conv2D)          (None, 16, 10, 32)        9248      
                                                                 
 max_pooling2d_10 (MaxPoolin  (None, 8, 5, 32)         0         
 g2D)                                                            
                                                                 
 conv2d_11 (Conv2D)          (None, 8, 5, 32)          9248      
                                                                 
 max_pooling2d_11 (MaxPoolin  (None, 4, 2, 32)         0         
 g2D)                                                            
                                                                 
 flatten_3 (Flatten)         (None, 256)               0         
                                                                 
 dense_6 (Dense)             (None, 128)               32896     
                                                                 
 dense_7 (Dense)             (None, 11)                1419      
                                                                 
=================================================================
Total params: 53,719
Trainable params: 53,713
Non-trainable params: 6
_________________________________________________________________
1156
(1156, 32, 20, 3)
(1156, 11)
(924, 32, 20, 3)
(232, 32, 20, 3)
Epoch 1/100
  1/231 [..............................] - E
…
